ChatBot/chat_bot/data - Copy.pth (torch, 6634 bytes, 6 tensors)

linL1.weight f4 [20, 20]
-3.4408944 3.0883548 3.2562368 -2.9523268 -3.35178 3.272726 -2.1077163 3.4721408
3.401618 3.4696772 3.4165912 3.3847113 3.2782733 -2.6384938 -3.367149 3.4231296
-0.10474881 3.1666954 3.0614092 3.17178 -3.2705183 3.208345 3.418266 -3.0736234
-3.3678656 3.0632117 -3.3574805 3.0336072 3.4252408 3.447077 3.496682 3.1936953
3.042928 2.2293115 -3.1263518 3.2114644 -3.1933656 -3.2359755 3.1499379 3.2768161
-2.9330044 3.3719983 3.349786 -3.3238196 -2.9783845 3.2777333 3.4810972 2.9034958
3.355346 3.3913548 3.4455824 3.4022563 3.357018 -2.8046274 -2.8637302 3.4852743
3.4718425 3.350532 3.098372 3.3698661 -3.056588 3.0105028 -3.2653627 3.070977
-3.3087082 3.1520433 3.098788 3.1135504 2.9021518 -3.2567205 3.034727 -3.2269485
3.1205108 3.1868482 0.5684159 3.5635862 -3.3508189 3.1916409 3.332398 -3.2262554
0.14756767 2.9983454 2.93377 -3.5298302 2.7170386 3.278082 -0.18554449 3.408031
3.4438324 3.4497998 3.4470758 3.053062 3.02733 -3.0891025 1.485733 -3.3389788
3.4104857 -0.22311892 2.9650521 2.9356966 -2.4632983 -2.8038297 3.0918822 -3.1630607
3.0328355 -3.1908395 3.1120663 -3.0832937 -3.1651125 -3.0520422 -3.3298628 2.9884493
-2.8589163 3.512273 3.0772622 3.2959719 -3.389277 3.4411366 -2.7379136 3.0933485
-3.2951484 3.2337334 3.2052891 -3.0297794 -3.2603812 3.079971 3.3007758 3.3433685
3.1997292 2.911212 3.270997 3.236085 3.31021 2.6823454 -3.2467215 3.2690165
-0.15512487 3.3497446 3.2067542 3.1808977 3.2953362 -3.148355 -3.3043427 -3.296513
3.228672 -3.1904414 -0.19516583 -3.161576 -3.2327805 -3.4317095 -3.2739549 -3.146815
-3.0908444 3.3810966 3.338225 -3.5835407 3.3376136 -0.21880037 -3.1292195 -3.110013
3.4412186 3.2444842 3.1897092 3.2970903 3.4318144 3.2208574 -3.2944057 3.226195
2.9777951 3.2547162 3.2577848 3.305928 2.989017 -3.2791207 3.339419 -3.0801094
3.4303074 -3.1468496 3.2680526 3.1829727 -2.6991546 3.4471157 3.2351563 -3.3236442
2.8378773 3.2023277 2.8063076 3.3170567 3.2356431 3.4600585 3.4609241 3.4567688
3.1745555 -3.0223703 2.9796374 3.3490577 3.0407891 2.9571984 3.4254715 3.4051898
3.4691117 -3.2937143 -3.0632477 -3.356363 3.2819498 -3.2477884 3.1576822 -3.0108979
-3.145573 -3.2830656 -3.2901452 -3.2352552 -3.1752508 3.4758823 3.1855114 2.942201
2.9369695 3.2519035 -3.1906369 -3.0789537 -0.20238243 0.0009382665 -0.108825125 0.13758805
-0.1303422 0.03826639 -0.044117957 0.13242716 -0.15396008 -0.22290987 -0.1908234 -0.013940766
0.11645329 -0.051774517 -0.11682254 -0.12382467 0.04672557 0.20158896 -0.03215143 -0.14143384
2.87996 2.7364662 2.7760727 3.457252 -1.3634498 -0.65089625 -0.9099527 -0.62545514
3.1577795 3.1764748 2.9009209 3.1266017 2.9789157 -3.464 3.0086973 3.4477925
00000000: 9d37 5cc0 9ba7 4540 2f66 5040 ecf2 3cc0
00000010: 9083 56c0 5874 5140 d3e4 06c0 8e37 5e40
00000020: 1cb4 5940 310f 5e40 6ea9 5a40 1c9f 5840
00000030: 3bcf 5140 15dd 28c0 5f7f 57c0 8e14 5b40
00000040: 8b86 d6bd 23ab 4a40 21ee 4340 72fe 4a40
00000050: 2c50 51c0 8655 4d40 dfc4 5a40 3fb6 44c0
00000060: 1c8b 57c0 a90b 4440 f6e0 56c0 9f26 4240
00000070: 2537 5b40 e99c 5c40 a3c9 5f40 8165 4c40
00000080: 55bf 4240 0aad 0e40 2616 48c0 a288 4d40
00000090: 1a60 4cc0 391a 4fc0 9598 4940 5bb7 5140
000000a0: 58b6 3bc0 d2ce 5740 e562 5640 76b9 54c0
000000b0: da9d 3ec0 62c6 5140 4cca 5e40 e0d2 3940
000000c0: fdbd 5640 f50b 5940 6c84 5c40 91be 5940
000000d0: 62d9 5640 047f 33c0 5b47 37c0 bc0e 5f40
000000e0: ab32 5e40 1e6f 5640 ba4b 4640 e3ab 5740
000000f0: 239f 43c0 14ac 4040 b4fb 50c0 e38a 4440
00000100: e0c1 53c0 14bb 4940 8b52 4640 6944 4740
00000110: dbbc 3940 1c6e 50c0 f838 4240 5386 4ec0
00000120: 73b6 4740 52f5 4b40 b483 113f cc11 6440
00000130: d173 56c0 d843 4c40 0246 5540 f87a 4ec0
00000140: fb1b 173e e4e4 3f40 e3c2 3b40 bde8 61c0
00000150: f6e3 2d40 18cc 5140 60ff 3dbe 2e1d 5a40
00000160: c067 5c40 85c9 5c40 e49c 5c40 5e65 4340
00000170: c6bf 4140 dbb3 45c0 802c be3f d4b1 55c0
00000180: 6645 5a40 4979 64be 6ac3 3d40 74e2 3b40
00000190: aea6 1dc0 f271 33c0 66e1 4540 966f 4ac0
000001a0: fa19 4240 b736 4cc0 182c 4740 af54 45c0
000001b0: 3491 4ac0 a954 43c0 791c 55c0 c142 3f40
000001c0: 7cf8 36c0 15c9 6040 ddf1 4440 34f1 5240
000001d0: eae9 58c0 953b 5c40 fa39 2fc0 6cf9 4540
000001e0: b6e3 52c0 7df5 4e40 7523 4d40 e8e7 41c0
000001f0: 16aa 50c0 3f1e 4540 e93f 5340 c0f9 5540
00000200: 5dc8 4c40 4c51 3a40 0458 5140 041c 4f40
00000210: 7bda 5340 8cab 2b40 49ca 4fc0 9137 5140
00000220: 0ed9 1ebe 3762 5640 763b 4d40 d493 4b40
00000230: cae6 5240 a67e 49c0 5a7a 53c0 12fa 52c0
00000240: 90a2 4e40 3130 4cc0 8dd9 47be 4357 4ac0
00000250: e0e5 4ec0 21a1 5bc0 7a88 51c0 6b65 49c0
00000260: 65d0 45c0 e363 5840 7aa5 5540 bb58 65c0
00000270: 769b 5540 340d 60be 2245 48c0 740a 47c0
00000280: ed3c 5c40 a1a5 4f40 3224 4c40 8703 5340
00000290: d9a2 5b40 8722 4e40 8bd7 52c0 fb79 4e40
000002a0: 3294 3e40 454d 5040 8c7f 5040 5394 5340
000002b0: 0e4c 3f40 1ddd 51c0 0ab9 5540 8320 45c0
000002c0: 288a 5b40 fc65 49c0 c627 5140 d3b5 4b40
000002d0: f3be 2cc0 8b9d 5c40 cd0c 4f40 96b6 54c0
000002e0: c89f 3540 f0f2 4c40 8b9a 3340 a84a 5440
000002f0: c714 4f40 9971 5d40 c87f 5d40 b33b 5d40
00000300: eb2b 4b40 846e 41c0 61b2 3e40 f656 5640
00000310: 4a9c 4240 bd42 3d40 ed3a 5b40 a1ee 5940
00000320: ed05 5e40 37cc 52c0 400c 44c0 a7ce 56c0
00000330: 770b 5240 c4db 4fc0 7717 4a40 8db2 40c0
00000340: 1151 49c0 bf1d 52c0 bd91 52c0 6c0e 4fc0
00000350: 4f37 4bc0 db74 5e40 6bdf 4b40 054d 3c40
00000360: 4ff7 3b40 301f 5040 6533 4cc0 940d 45c0
00000370: 573d 4fbe 00f6 753a b5df debd e2e3 0c3e
00000380: 6d78 05be 38bd 1c3d 08b5 34bd fc9a 073e
00000390: b6a7 1dbe 7c42 64be 3667 43be d067 64bc
000003a0: 107f ee3d 8411 54bd a840 efbd ca97 fdbd
000003b0: 5063 3f3d 566d 4e3e 38b1 03bd 08d4 10be
000003c0: 4451 3840 4322 2f40 2dab 3140 9e43 5d40
000003d0: 8685 aebf 23a1 26bf a9f2 68bf d41d 20bf
000003e0: 0f19 4a40 5d4b 4b40 b0a8 3940 3e1a 4840
000003f0: 8ea6 3e40 2db2 5dc0 7f8e 4040 a2a8 5c40

linL1.bias f4 [20]
3.2883992 3.2519267 3.0432196 3.3265374 3.329078 3.1708357 3.4040356 3.4712245
3.506175 3.0633402 3.3536122 -0.19569747 3.4230657 3.2710197 3.1303604 3.1138518
3.4768913 3.0412276 -0.20546634 3.377494
00000000: 2275 5240 911f 5040 1cc4 4240 fde5 5440
00000010: 9d0f 5540 f9ee 4a40 b8db 5940 8b28 5e40
00000020: 2c65 6040 c40d 4440 95a1 5640 eb64 48be
00000030: 8213 5b40 6358 5140 d357 4840 5949 4740
00000040: 6385 5e40 79a3 4240 c565 52be dd28 5840

linL2.weight f4 [20, 20]
-2.9533005 -3.0572727 -3.0831263 -3.2525437 -2.943894 -2.9097545 0.17526346 -0.09830387
-3.0112023 -3.028688 -3.2222764 0.060419798 -3.2251573 -2.856147 0.010017574 -3.020984
-2.9216068 0.1060271 -0.05052516 -3.1448 3.1750143 3.1555312 3.4576123 -3.0256708
3.345156 -2.8463526 3.1472623 3.2856023 2.4775057 3.332086 -1.0296617 0.036417276
-3.25548 3.4730787 3.2271974 0.718941 -3.4144423 3.03128 -0.16389121 3.212482
3.411056 3.4536533 3.4870665 3.4966447 1.9060308 2.5926049 3.2885015 -3.575039
-3.4655201 3.293794 -3.3543136 -0.106823176 3.117204 -2.7827363 -2.3502295 3.4032688
-2.1392272 -3.1488793 0.15798771 3.2697086 -2.9835665 -2.9520452 -2.798086 -3.0605316
-3.0525222 -2.9533715 -2.9855177 -3.0420797 -3.1312037 -0.113941 -2.862904 -0.0568434
-3.1791923 -3.2101192 -0.20157406 -2.9545882 -3.1096435 -3.0325468 -0.19660272 -0.13120481
-3.217845 -3.1614106 -2.9325888 -3.0288534 -0.17798887 -2.883623 -3.2496364 -3.0681937
-0.084909305 -0.14452112 -3.1304433 -0.022315904 -3.1150029 -3.2962103 0.11096108 -3.0497766
-3.137673 0.034080654 0.065811545 0.1695607 0.029805481 -0.040182278 -2.8405893 -0.18685381
-2.9875605 -0.050178126 0.037906826 -2.8697808 -3.071175 -3.2697823 -3.0509214 -0.17496163
0.09614247 -3.0689738 -2.896407 -2.9894354 -0.21457763 0.042152554 0.10141814 -3.075736
-3.2387369 -3.0474992 3.0943363 -3.368605 3.506271 3.150934 -3.1510434 3.2787127
3.0434022 3.0645993 3.561453 0.17860824 -3.3584418 3.1965475 3.3647733 3.1981013
-3.281301 2.9790301 0.21310121 2.507647 2.3333364 -3.2175453 3.2044153 3.41547
-3.3333824 3.5023742 2.9911177 3.3288434 3.1378994 -3.386417 3.523365 0.033189505
3.08922 3.1648865 -3.4806817 3.518208 3.500559 1.3607178 -0.093167245 -3.3813872
-3.1735928 -3.1718378 -3.1783724 -3.1299145 -3.2196622 -2.9777277 -3.1781602 -2.1243052
-3.177663 -3.0845032 -2.8791742 -0.19368023 -3.0339782 -2.8599343 -3.0696042 -3.2206337
-3.1141295 -3.2984476 -0.035653397 -3.2002785 -3.1540976 -3.3706138 3.4869735 3.262365
3.1253843 3.3611488 2.7676258 3.2951183 -3.1089392 -3.077093 3.295718 0.05372119
-3.5207126 3.3143857 -2.0938869 3.4186575 3.1951249 -3.3311183 -0.052571222 -3.4164572
-0.13329329 -0.21522439 -0.15950486 0.0022535026 0.14460832 0.061072916 0.17221051 0.013084501
-0.21552792 -0.20066908 -0.053085595 0.04682052 -0.06549631 -0.13353544 0.037671804 0.17488486
0.12911326 -0.018051922 -0.08805673 0.1600152 -3.3459914 -3.0679595 -3.4479945 3.2041245
-3.1333885 3.2575614 -3.5658681 3.3280134 3.0762832 -3.1458726 3.4344609 0.039477885
3.262651 3.0024402 -3.4867048 -2.6241577 3.4608479 -2.9331093 0.0634146 3.2583392
3.3535764 3.3614688 3.2359374 3.1871512 3.1195261 3.2801373 3.417471 -3.32387
-3.2664864 3.2344773 -2.859385 0.17149502 0.851577 3.1360834 -3.3397152 3.2793348
00000000: e002 3dc0 5baa 43c0 f151 45c0 ad29 50c0
00000010: c268 3cc0 6b39 3ac0 4478 333e 8a53 c9bd
00000020: 8ab7 40c0 06d6 41c0 c739 4ec0 c07a 773d
00000030: fa68 4ec0 1dcb 36c0 c020 243c cd57 41c0
00000040: 9bfb 3ac0 bc24 d93d 78f3 4ebd 6744 49c0
00000050: 6f33 4b40 39f4 4940 8549 5d40 97a4 41c0
00000060: 0917 5640 a42a 36c0 bf6c 4940 4f47 5240
00000070: 748f 1e40 e640 5540 f4cb 83bf 482a 153d
00000080: c959 50c0 ec46 5e40 678a 4e40 840c 383f
00000090: 3986 5ac0 7e00 4240 19d3 27be 4e99 4d40
000000a0: be4e 5a40 a808 5d40 192c 5f40 07c9 5f40
000000b0: d1f8 f33f 3ded 2540 cf76 5240 70cd 64c0
000000c0: 15cb 5dc0 85cd 5240 13ad 56c0 1cc6 dabd
000000d0: 4580 4740 5a18 32c0 296a 16c0 28cf 5940
000000e0: 19e9 08c0 3d87 49c0 88c7 213e e842 5140
000000f0: c1f2 3ec0 4fee 3cc0 d713 33c0 c0df 43c0
00000100: 865c 43c0 0a04 3dc0 b912 3fc0 6fb1 42c0
00000110: a465 48c0 e659 e9bd d239 37c0 a0d4 68bd
00000120: e377 4bc0 9872 4dc0 6e69 4ebe f917 3dc0
00000130: 6604 47c0 3f15 42c0 3952 49be 8e5a 06be
00000140: 2cf1 4dc0 8d54 4ac0 89af 3bc0 bcd8 41c0
00000150: b742 36be 478d 38c0 0bfa 4fc0 495d 44c0
00000160: eee4 adbd 58fd 13be 2f59 48c0 d8cf b6bc
00000170: 355c 47c0 1cf5 52c0 903f e33d 8a2f 43c0
00000180: a2cf 48c0 2898 0b3d 34c8 863d 52a1 2d3e
00000190: a02a f43c 2c96 24bd 37cc 35c0 9b56 3fbe
000001a0: 3134 3fc0 9487 4dbd 3044 1b3d 7daa 37c0
000001b0: 228e 44c0 1d44 51c0 4c42 43c0 2429 33be
000001c0: 58e6 c43d 116a 44c0 bb5e 39c0 e952 3fc0
000001d0: 3dba 5bbe 28a8 2c3d 50b4 cf3d dcd8 44c0
000001e0: 7747 4fc0 3a0a 43c0 9b09 4640 3997 57c0
000001f0: be66 6040 e7a8 4940 b2aa 49c0 6ed6 5140
00000200: 1ac7 4240 6522 4440 d9ee 6340 14e5 363e
00000210: b6f0 56c0 3c94 4c40 7258 5740 b1ad 4c40
00000220: d600 52c0 6ea8 3e40 3437 5a3e 4a7d 2040
00000230: 6255 1540 43ec 4dc0 2415 4d40 0f97 5a40
00000240: 2356 55c0 e626 6040 796e 3f40 c50b 5540
00000250: 58d3 4840 0ebb 58c0 d07e 6140 b8f1 073d
00000260: c8b5 4540 808d 4a40 7dc3 5ec0 522a 6140
00000270: 2909 6040 002c ae3f 78ce bebd a668 58c0
00000280: 251c 4bc0 64ff 4ac0 746a 4bc0 8550 48c0
00000290: f20e 4ec0 1793 3ec0 fa66 4bc0 9ef4 07c0
000002a0: d55e 4bc0 8068 45c0 6444 38c0 1c54 46be
000002b0: b32c 42c0 2a09 37c0 6574 44c0 dd1e 4ec0
000002c0: e64d 47c0 c419 53c0 4c09 12bd 5dd1 4cc0
000002d0: bcdc 49c0 23b8 57c0 932a 5f40 97ca 5040
000002e0: 4c06 4840 101d 5740 c820 3140 38e3 5240
000002f0: dcf8 46c0 17ef 44c0 0bed 5240 c00a 5c3d
00000300: 5b53 61c0 e51e 5440 3e02 06c0 49cb 5a40
00000310: ed7c 4c40 0b31 55c0 ec54 57bd 3ca7 5ac0
00000320: 097e 08be c863 5cbe 3e55 23be 80af 133b
00000330: 3414 143e 9827 7a3d f457 303e 6060 563c
00000340: 5ab3 5cbe 327c 4dbe 4870 59bd e0c6 3f3d
00000350: ee22 86bd 84bd 08be c04d 1a3d 0415 333e
00000360: 4436 043e a0e1 93bc 1657 b4bd 06db 233e
00000370: b924 56c0 7359 44c0 f1ab 5cc0 6010 4d40
00000380: 7089 48c0 e37b 5040 2f37 64c0 2cfe 5440
00000390: d3e1 4440 fa55 49c0 35ce 5b40 90b3 213d
000003a0: 46cf 5040 fb27 4040 2c26 5fc0 33f2 27c0
000003b0: 887e 5d40 10b8 3bc0 84df 813d a188 5040
000003c0: ffa0 5640 4e22 5740 9919 4f40 49fa 4b40
000003d0: 51a6 4740 c5ed 5140 d8b7 5a40 49ba 54c0
000003e0: 1d0e 51c0 ad01 4f40 2a00 37c0 649c 2f3e
000003f0: f300 5a3f 97b5 4840 e5bd 55c0 9fe0 5140

linL2.bias f4 [20]
-3.262409 -2.6640844 -2.8253205 -2.9891427 -3.2519445 -3.169511 3.1993434 3.4121525
-3.1746163 3.27234 -0.1871857 3.435603 -2.7867262 3.4895008 -3.020158 3.4262393
-3.2887454 3.3610032 3.2440078 3.1089172
00000000: 4fcb 50c0 5c80 2ac0 0dd2 34c0 1d4e 3fc0
00000010: dc1f 50c0 45d9 4ac0 0bc2 4c40 b560 5a40
00000020: ea2c 4bc0 056e 5140 9cad 3fbe ebe0 5b40
00000030: b959 32c0 fb53 5f40 454a 41c0 8147 5b40
00000040: ce7a 52c0 ad1a 5740 d39d 4f40 80f8 4640

linL3.weight f4 [5, 20]
2.8833249 2.7210424 3.265112 -2.961518 -2.9897292 -3.03721 -3.0860121 -3.4918861
-3.0828893 -3.3952267 0.034569293 -3.275948 3.165383 3.054471 -2.881941 3.1334252
3.012195 3.2990465 -3.1717572 -3.4129236 -3.12384 -3.3830273 -3.3747706 -3.2259066
-2.914338 -2.9055343 -3.4383569 3.277502 -3.3466878 -3.3402362 0.042729914 3.3958855
-3.4746666 3.518366 -2.9498482 3.2870471 -2.8893666 3.2033355 3.2403338 -3.2199204
-2.989727 3.1642535 -3.2367594 -3.1545854 -2.9600823 -3.0201004 3.3111596 3.4590447
-2.869974 3.5545714 -0.18913695 3.3215563 2.9125412 -3.403296 -3.1813912 -3.3206677
-3.2037916 -3.1314147 -3.5387006 -2.1003952 -2.9500995 3.463489 -3.2987528 -3.1207995
-3.2242343 2.9297626 3.35988 -3.2070794 2.042311 3.2115908 -0.11466225 -3.5286462
-3.3098283 -3.3351297 2.8489113 -1.7033129 -3.0946445 3.4365017 -3.2506986 3.37593
-3.2661214 -2.6770148 3.425717 2.8457634 2.945113 -2.8716285 -3.2559264 3.2217972
2.946153 0.66679466 -0.13713482 -3.4634948 3.2580876 -3.1474042 -3.0243943 -3.47979
-3.2809107 -3.4691892 3.2603009 -3.4104197
00000000: 6588 3840 8f25 2e40 98f7 5040 8389 3dc0
00000010: b957 3fc0 a661 42c0 3981 45c0 107b 5fc0
00000020: 0f4e 45c0 654b 59c0 8898 0d3d 22a9 51c0
00000030: a395 4a40 747c 4340 b971 38c0 0a8a 4840
00000040: cec7 4040 9423 5340 12fe 4ac0 576d 5ac0
00000050: ffec 47c0 8583 58c0 3efc 57c0 4175 4ec0
00000060: 8484 3ac0 46f4 39c0 0a0e 5cc0 98c2 5140
00000070: 2230 56c0 6ec6 55c0 9005 2f3d 3056 5940
00000080: f060 5ec0 e92c 6140 50ca 3cc0 fb5e 5240
00000090: 62eb 38c0 7303 4d40 a161 4f40 2d13 4ec0
000000a0: b057 3fc0 2183 4a40 1127 4fc0 bae4 49c0
000000b0: fd71 3dc0 5349 41c0 0aea 5340 fd60 5d40
000000c0: a7ad 37c0 197e 6340 1ead 41be 6194 5440
000000d0: 1367 3a40 9acf 59c0 ea9b 4bc0 d285 54c0
000000e0: ec0a 4dc0 1969 48c0 127a 62c0 e06c 06c0
000000f0: 6ece 3cc0 cea9 5d40 c41e 53c0 2ebb 47c0
00000100: db59 4ec0 3b81 3b40 4608 5740 ca40 4dc0
00000110: 39b5 0240 b48a 4d40 0bd4 eabd 57d5 61c0
00000120: 3ad4 53c0 c472 55c0 9054 3640 2806 dabf
00000130: a80e 46c0 a5ef 5b40 720b 50c0 3d0f 5840
00000140: 2208 51c0 3654 2bc0 f33e 5b40 fd20 3640
00000150: bb7c 3c40 c3c8 37c0 1961 50c0 ed31 4e40
00000160: c58d 3c40 0eb3 2a3f 126d 0cbe e6a9 5dc0
00000170: 8284 5040 126f 49c0 ad8f 41c0 e1b4 5ec0
00000180: 71fa 51c0 3207 5ec0 c5a8 5040 5144 5ac0

linL3.bias f4 [5]
1.9516813 2.9460886 -1.0125163 -2.8439794 -3.2223845
00000000: b1d0 f93f b78c 3c40 229a 81bf c203 36c0
00000010: 8c3b 4ec0
