ChatBot/chat_bot/data.pth (torch, 6634 bytes, 6 tensors)

linL1.weight f4 [20, 20]
00000000: 591a 373e 3ed0 5cbe a5d0 1ebe 052d 46bd
00000010: 9deb 123d 8e25 d0bd b275 b33e a4d7 76bd
00000020: c973 4ebe 16aa 86bc 8f87 73bd 2c5a 5c3d
00000030: aaf9 11be bb34 1b3d ee94 303d 686d c93d
00000040: 4217 d53e a8b3 84bd f238 fabb c0db 79bd
00000050: 62c7 10be f25a 8c3e b9b5 863e d83b 833d
00000060: b16d eabc 1f5f b93e 0506 9bbe f2ab 4b3e
00000070: a864 333e a771 9e3e 549b 6d3e 17c7 113e
00000080: 4134 963e e894 ce3d b427 68be 3443 a4bd
00000090: 1b3e e9bb ff89 d9be 52d2 ed3d 1070 b43e
000000a0: 7937 593e 505b 3e3c 1acc 81bc 3e93 8fbe
000000b0: d2f3 953d 885a b43e 7444 893d 08c8 083e
000000c0: 60a4 f9bd 81e1 833c 5e21 b63e 890b 1fbe
000000d0: 5888 19be 2adb e33e aa04 6c3e 0628 54be
000000e0: d8fd 82be 067b c5bd 205d fb3b 0ec9 543e
000000f0: d4ea c43e c881 183d be29 51be b718 c93e
00000100: 04c8 fa3c 1a16 9abe 0001 823d 028e 903d
00000110: 5e74 14be aa3a 0fbe f4bb 06be 1692 40be
00000120: 55ab 02be 9ed5 b03e 0ed0 233e 5aea 89be
00000130: b77b 6b3e ca82 2cbe 5698 86bd 4429 fe3d
00000140: 54ef b33e f719 49be fa78 0abe 600f 263e
00000150: 1891 5dbb d40a fab9 dc08 36bd 954f 68be
00000160: ae50 12be 5de1 20be 5d63 1ebe bf1d 97be
00000170: 0e5b c2bd d1fa aabe 2c0c da3c 0f02 f7bd
00000180: 90db a93e 95de 5fbe 00d3 9b3d 4f69 c23d
00000190: 6901 8c3e 2400 7e3e fb42 853c a366 7abe
000001a0: 7dc1 723e 0544 0abd e59c 9d3e 52bd a2bd
000001b0: 28fb 07be 1fad d23d e7d3 febd 35db 48be
000001c0: e630 863c f31c 8dbe c551 513e 7ea2 133e
000001d0: 8df9 be3e ba9a 123d 232c 8b3e 20d1 43be
000001e0: db93 4bbe 602b 21bd 432b 633d ba8c 8bbc
000001f0: 0544 f8bd 2b98 153d 284c fd3d 59b0 3fbe
00000200: 51fa 59bd 30b4 9e3c f6b4 88bd 44e1 093e
00000210: d46c cdbd 48dd 1d3d 532a e9bd d804 19be
00000220: f40b 12be 4822 1abe a0c5 f5bd cf56 183e
00000230: c74a 94bb 7809 a83e 350e af3e 5dcf 35be
00000240: 1e9c c6bd 504c 513d 5c2d db3d 234c 51be
00000250: b977 e3bd d41c 0fbe 9427 ab3e a945 b93e
00000260: 128c 3f3e 3295 c2bd b746 0dbe aa67 1cbe
00000270: 19cf 0bbe 3888 e6bd da5d 3e3e 7544 a63e
00000280: e559 28be 6839 fc3d a692 2dbe c15d 24be
00000290: 20c5 6bbc 8012 283b c2ed 0dbe 53a5 63be
000002a0: f467 71be 4084 5c3d 3f14 2bbe 84cc 02be
000002b0: b64c cc3d debc 243e 51c9 9bbc 669f 1e3e
000002c0: 8a26 07be 9262 a13e 4448 c13d d4e6 d83d
000002d0: 4cae 663e 9bd9 21be 6236 5ebe 6d48 883e
000002e0: fa17 813e ad83 d03e 2ec3 27be 8d00 dd3e
000002f0: 5ff7 db3e 4715 a0bd a9c4 61be a513 26be
00000300: f08a 5ebe 0163 cb3d 9882 3cbe d061 04be
00000310: d2ea d8be 8917 313e 1c5b 1d3e ab93 c9bd
00000320: 589f 52bd bc5d b9bd 928e 57be 1606 1bbe
00000330: ec65 60bd 48a8 06be ccf9 e03d 0af2 43be
00000340: 9ad7 033e 0ea0 1f3e b637 28be 0057 533b
00000350: 22be 00be de37 12be 0039 533a a8f7 4c3d
00000360: a1e5 f4bd f0a7 ee3d d03d 553d 96ca 093e
00000370: b7a1 4abd ec19 0d3e 4cc1 ce3d d5a1 893e
00000380: d2e2 b93d c080 3bbe 70d6 dcbd 7661 18be
00000390: f08a 763d 5584 c33e 861b 21be 7081 023d
000003a0: 087b 6c3d 5494 52be 4a05 553a 1fe5 43be
000003b0: da7c 98bd c8be 3f3d d93e 62be c416 93bd
000003c0: 3a98 103e bdd7 c63e e93a 6cbd 9a48 e33e
000003d0: 2c94 773e 20dc c53e c417 41be d14d e33d
000003e0: ad37 5c3e ad2c a13d 8505 15be 3036 833e
000003f0: f15a b03e 4238 3dbe f47c 2d3e 6f01 123e
0.17881145 -0.21563813 -0.15509279 -0.048382778 0.03586923 -0.10163413 0.35050732 -0.060264245
-0.20161356 -0.016438525 -0.05945545 0.053796932 -0.14255396 0.037892085 0.04311078 0.09835321
0.41619307 -0.06479579 -0.007636183 -0.061000586 -0.14138559 0.27413136 0.26310518 0.06407899
-0.028616758 0.36205384 -0.3027803 0.1988981 0.17518866 0.30946085 0.23203784 0.14236103
0.29336742 0.10086995 -0.22671396 -0.080206305 -0.0071179993 -0.42488095 0.11612381 0.35241747
0.21212567 0.01161845 -0.015844394 -0.28042024 0.07321896 0.3522532 0.067025095 0.13357556
-0.12189555 0.01609874 0.35572332 -0.15531744 -0.14993417 0.44503146 0.23048654 -0.20718393
-0.25584292 -0.096426055 0.0076710135 0.20779821 0.3846041 0.037233144 -0.2042608 0.39276668
0.030612953 -0.30094987 0.06347847 0.07058336 -0.14497516 -0.13987222 -0.13157636 -0.18805727
-0.1276067 0.34537977 0.15997335 -0.2693661 0.22996412 -0.16846767 -0.065720245 0.124102145
0.3514353 -0.19638811 -0.13522711 0.16216803 -0.0033808406 -0.00047691783 -0.044442043 -0.22686608
-0.1428859 -0.1571097 -0.15467592 -0.29514882 -0.094900236 -0.33394483 0.026617132 -0.120609395
0.33175325 -0.21862252 0.076086044 0.09492742 0.27344826 0.24804741 0.01626729 -0.24453215
0.23706622 -0.033756275 0.30783764 -0.07946266 -0.13279402 0.102869265 -0.12442761 -0.19614871
0.016380738 -0.2756115 0.20441349 0.14417455 0.37299767 0.03579209 0.2718211 -0.19122744
-0.19880621 -0.039348006 0.05546118 -0.017034877 -0.12122349 0.03652207 0.12368041 -0.18719615
-0.053217236 0.01937303 -0.066751406 0.13464838 -0.10030523 0.03854111 -0.11385026 -0.14943254
-0.14262372 -0.1505214 -0.120005846 0.14876865 -0.0045255157 0.32819724 0.34190527 -0.17754884
-0.09697746 0.051098168 0.10702011 -0.204392 -0.1110682 -0.13975841 0.33428633 0.3618596
0.18705776 -0.09501113 -0.13796507 -0.1527392 -0.1365322 -0.112564504 0.18590489 0.32474104
-0.16440542 0.12315637 -0.16950473 -0.1605139 -0.01439026 0.0025645792 -0.13860229 -0.22231035
-0.23574811 0.05383706 -0.16706942 -0.12773329 0.09975569 0.16087672 -0.019016894 0.15490493
-0.13198295 0.31520516 0.09437612 0.10590902 0.22527426 -0.15805666 -0.21700433 0.26617756
0.25213605 0.4072546 -0.16383049 0.43164483 0.42962167 -0.07816558 -0.22047676 -0.16218431
-0.21732688 0.09930993 -0.18409193 -0.12927938 -0.42366654 0.17294134 0.15366787 -0.098426186
-0.051421493 -0.090510815 -0.2105048 -0.1513904 -0.0547847 -0.13150132 0.10985145 -0.191353
0.12875214 0.155884 -0.16427502 0.00322479 -0.1257253 -0.14279124 0.0008057505 0.05004087
-0.11957861 0.11653125 0.052060902 0.13456187 -0.04947063 0.1377942 0.10095462 0.2688128
0.09076466 -0.18310833 -0.10783088 -0.14880928 0.060191095 0.381869 -0.15733156 0.031861722
0.05773452 -0.20564395 0.00081260933 -0.19130372 -0.074456885 0.046812803 -0.22094287 -0.071820766
0.1412057 0.3883647 -0.05767337 0.44391328 0.24177617 0.38644505 -0.18856722 0.11098827
0.21505614 0.07869849 -0.14552887 0.2562728 0.34444383 -0.18478492 0.16942197 0.1425836

linL1.bias f4 [20]
00000000: c730 163e 4661 ce3e 6f9c 0fbb f07b 0d3e
00000010: b36e 173e 6c86 df3d e377 49be a942 483d
00000020: e3f5 63bd d002 5a3e 8a9f 36be 34c3 24be
00000030: 8adf 283d 6850 a63e 174a 9f3e 8ec7 ef3d
00000040: 141e 2b3e faef a03c 7419 b73e 71f0 ab3d
0.14667045 0.4030859 -0.002191331 0.1381681 0.14788322 0.10914311 -0.1967464 0.048891697
-0.055654418 0.21290135 -0.17834297 -0.16090089 0.04122881 0.3248322 0.31111214 0.11707984
0.16710693 0.01964568 0.35761607 0.0839547

linL2.weight f4 [20, 20]
00000000: 2e45 85be dd65 d93e 3e1e 353e 5c33 57be
00000010: 7714 d0bd aef7 87be 4ff6 3e3e dc3e d53e
00000020: cae2 51be fb31 7f3e a842 02bd e589 a13e
00000030: a3c8 da3e 6581 dcbe 52ae 063d 9e94 66bd
00000040: ed7a e93e 0467 e739 b527 a83e 3a3b 8a3e
00000050: c1b4 a9bd 9d84 9a3e 00de dcbe 36c3 543e
00000060: f4b5 d23c c750 1abe c154 41be 105b 55be
00000070: 05ca c2bd d426 7b3e b983 32be 2b7d dc3d
00000080: c6d2 9f3e a5ad a0be 508c 443e f3e2 a73d
00000090: 3d32 c33e 4398 36bd 5c81 e6bd 4350 803e
000000a0: 1bd7 16be c116 febd b079 2ebc 60e1 59be
000000b0: e23f fdbd b26c 0ebe 4e96 56be ca99 b0bd
000000c0: b65e 403e 6093 a6bc 24ec 2fbd c860 22be
000000d0: e07e b93d 202c e23b 1420 1c3e 43a0 10be
000000e0: 363f 123e 0c9c 55bd 9815 03be 604d 34bc
000000f0: 58f0 4f3e 9e6e d43e e322 f6bd d723 a8be
00000100: 7fd0 263e 6164 c93d c7e8 723e 4c5a c43e
00000110: 5496 70bd 8ac1 3fbe 3cb5 aabd 330a 96be
00000120: 67fe 11be aa75 b53e f6cc 333e 2e7a a9be
00000130: def9 913e a2a7 c93e 8137 ae3e 1081 9ebe
00000140: 0976 85bd 3c79 42be 3e30 6e3e ae04 e2bc
00000150: 5c5a 6dbe 3a1a 99be 2976 97bd d330 bfbe
00000160: 6c6f 8f3c f0c7 123e 08ec 283d b200 c2be
00000170: eb69 f23d cc69 b7bd 62c1 953c e9d4 2a3e
00000180: e543 48be b7fe 68be d898 16be b0e4 053e
00000190: c290 c43d 5d26 91be b6fd dbbb 7643 83be
000001a0: d5cb 173d 3286 0a3e b4b5 8cbb b044 bcbe
000001b0: 6fca 273c b63d 29bd b014 393d 85fe a6bd
000001c0: c361 92be c9d0 913c 80e2 4dbe 9147 b8bd
000001d0: 244c 7fbe f1ab d7bd 6a92 aabe 6438 af3d
000001e0: c6ab 203e 8e04 0bbd cc73 8e3e 49ab 10be
000001f0: 93b6 43bd 2770 1ebe bf17 23be 3b2d 103e
00000200: 145c 68bd 3332 183e e860 93bd 186a 3fbe
00000210: 3203 1cbe ce5e 2e3e de74 793e 64b1 2ebe
00000220: c5ab 633e b32c d4bd 3d37 263e 1eeb bf3d
00000230: d90a 6ebe aa5b 273e 1822 61be d223 d4be
00000240: 4440 83be 5822 d13d f3f2 743c 6bbd c53e
00000250: f352 393e 2664 a0be d0e0 183e 952a b93e
00000260: 7920 d03e a103 b73e 1f99 adbe 89b3 01bd
00000270: 1b28 693e 2e52 b63e a248 373d 368e 05be
00000280: 3828 1b3d 708a 23be c0ca 0c3c f86b 64bd
00000290: 08b4 9f3d 1080 b03d 08c8 8bbe 8967 d9bd
000002a0: 79ac 30be 5c51 72bd b0ae 5a3d b275 293e
000002b0: 12f7 0cbe d8f6 8fbe 398a efbd 38d3 cbbc
000002c0: 2791 4cbe 1fac 813d 5b30 393d 80b2 c33c
000002d0: 1877 663d adae c3bc 98ff 2f3e ba49 4fbe
000002e0: f8c4 ad3d d137 27be c835 31be 9a79 573d
000002f0: 3214 10be 80ec 9bba f8af 363e 9766 4cbe
00000300: ba74 d7bd 5b2b 2abe d0de eebc 94f4 57be
00000310: d5b4 efbc f40a dc3c 8fe3 9ebe b026 19bc
00000320: ea5a 64bd cdb8 c83d 3b19 84be cbb1 58be
00000330: 8da7 dabe cf69 373d cd6b 0f3d 0ae0 1b3e
00000340: ac42 023e cc65 4e3e 8a61 383e f5e8 15be
00000350: 76c2 91be a7ea 903e 6f90 36be 58bf 513e
00000360: ffa2 423b ee94 193d 4495 c03e bc42 f7bd
00000370: 22cb d0be 0cb7 b53e 06f0 3f3e 6492 8cbe
00000380: b929 d8be 804b 00be 9c2e 443e d930 d43e
00000390: e95f 823e c28c d33e 68cd 00be 0d37 883d
000003a0: 3323 7c3e 5cc8 b4bd dceb 6fbd 9547 9d3e
000003b0: 0e6f 5c3e d73a d13e 2d3c 8b3e 8b2e 87be
000003c0: ff1e 42be 82ae 2c3e 00bc d7bd 1c88 df3d
000003d0: 70e4 e43d 4460 41be e386 5cbe abf4 38be
000003e0: 2c18 a7bd 3faa ebbd 62dc c2bd bceb 8c3d
000003f0: f82d 053d 10ab d8bc 49a8 4ebe 5cb2 583e
-0.26029342 0.42460528 0.17687318 -0.21015686 -0.10160153 -0.26556152 0.18648647 0.4164952
-0.2049667 0.2492141 -0.03180185 0.31550518 0.427312 -0.4306747 0.03288109 -0.056294076
0.45601597 0.00044136506 0.32842794 0.2699831 -0.08286429 0.301793 -0.43138123 0.20777592
0.025721528 -0.15069877 -0.18879987 -0.20835519 -0.095111884 0.2452653 -0.1743306 0.107660614
0.31215495 -0.3138248 0.1919415 0.08197584 0.38124266 -0.0445788 -0.11255142 0.25061235
-0.14730494 -0.12406684 -0.01064913 -0.2127738 -0.123657 -0.13908651 -0.20955774 -0.08623083
0.1878613 -0.020333946 -0.04294981 -0.15857232 0.090574026 0.0069022328 0.15246612 -0.14123635
0.14281926 -0.05215077 -0.12801206 -0.011004776 0.20306528 0.41490644 -0.12018373 -0.32839844
0.16290472 0.09833599 0.2372161 0.3835014 -0.058737114 -0.18726173 -0.08335349 -0.29304656
-0.14257203 0.35441333 0.17558655 -0.33101028 0.28510946 0.39385706 0.3402672 -0.30957842
-0.06516654 -0.1899156 0.2326059 -0.027590122 -0.23179 -0.29902822 -0.07395584 -0.37341937
0.017509185 0.14334083 0.041240722 -0.37891155 0.118366085 -0.08955726 0.018280689 0.16682781
-0.1955715 -0.22753416 -0.14706743 0.13075519 0.09597923 -0.2834958 -0.0067135943 -0.25637406
0.037059624 0.13527754 -0.0042941216 -0.36771154 0.010241135 -0.041318618 0.045185745 -0.081540145
-0.2859021 0.017799752 -0.20105934 -0.08998025 -0.24931389 -0.10530842 -0.3331483 0.085556775
0.15690526 -0.03393989 0.2782272 -0.1412784 -0.04778154 -0.1547247 -0.15927027 0.14079754
-0.056728438 0.148629 -0.07196218 -0.18692815 -0.15235594 0.17028353 0.24360988 -0.17059857
0.22233494 -0.10360088 0.16232009 0.09371017 -0.23246326 0.16343561 -0.21985662 -0.4143358
-0.25634968 0.10211629 0.014950502 0.38621077 0.18098049 -0.31326407 0.14929509 0.361653
0.40649775 0.35744956 -0.33905885 -0.03166536 0.22769205 0.35609573 0.044747002 -0.1304253
0.037880152 -0.15970778 0.008593261 -0.05576703 0.0779801 0.08618176 -0.2730105 -0.10615451
-0.17253293 -0.05915962 0.05338925 0.16548803 -0.13766125 -0.28118014 -0.11696286 -0.02488099
-0.19977246 0.063316576 0.04521213 0.023888826 0.05626592 -0.023887003 0.17187345 -0.20242968
0.084848344 -0.16329886 -0.17305672 0.052606203 -0.14070204 -0.0011896044 0.17840564 -0.1996101
-0.10520311 -0.16618101 -0.02915898 -0.21089393 -0.029261032 0.026860692 -0.31032988 -0.009347603
-0.055750765 0.09800873 -0.258005 -0.21161573 -0.42705956 0.04477864 0.035014916 0.15222183
0.12720746 0.2015602 0.18005958 -0.14639647 -0.28468674 0.28304026 -0.17828535 0.20483148
0.0029699204 0.037495546 0.3761388 -0.120732754 -0.40779978 0.35491216 0.18743905 -0.27455437
-0.42219332 -0.12528801 0.19158405 0.41443518 0.254638 0.41318327 -0.12578356 0.06651125
0.24622802 -0.08827278 -0.058574542 0.30718675 0.21526739 0.40865204 0.27194348 -0.26402697
-0.18957137 0.16863444 -0.10533905 0.10914633 0.111763835 -0.18884379 -0.2153583 -0.18062083
-0.08158907 -0.11507081 -0.09514691 0.068809 0.032514542 -0.026448756 -0.20181383 0.21161789

linL2.bias f4 [20]
00000000: ae82 863e 9f69 503d 2e20 12be d209 b53d
00000010: 34ac 063e 0840 ddbc d951 e9bd 6301 883e
00000020: 38dc 5cbe 0393 82be c8e3 963e e557 7b3e
00000030: e13d 45be 5378 23be 2f1c 4dbe cf04 e63d
00000040: e1a0 b53e a1c5 8dbe 82fd 6fbe 3b8f 9fbe
0.26271576 0.050881978 -0.14270088 0.08839764 0.13151628 -0.027008072 -0.11392564 0.26563558
-0.21568382 -0.25502786 0.29470658 0.24545248 -0.19261886 -0.15963869 -0.20030282 0.11231386
0.35474303 -0.2768984 -0.2343655 -0.31163964

linL3.weight f4 [5, 20]
00000000: 0354 db3e 92be 8d3d cbdb 3cbe fec3 e13e
00000010: cc27 ba3d acfb 31bc 9e4f 843e 029d ad3e
00000020: 0081 ecbc a147 22bd d721 523e 28ef b43e
00000030: b011 5b3d 6aae fabd 3bee 9dbd e9dc bf3e
00000040: 4cca e33d cf47 903d a635 a83d b682 1c3d
00000050: 4be8 b33e a98d d23e 6040 463e d532 adbe
00000060: 75f1 b4bd 4750 5bbe 5ed7 4abe a610 7dbe
00000070: 6402 4cbd 0fbd 4d3d 34ed d4be 8990 17be
00000080: 7ee3 3d3e fce3 213e abfe 77be bb29 abbe
00000090: df6b 76be 7f29 8fbd b1fe 87be 490a 29be
000000a0: cbf4 d53d 9b30 cfbd 0acb 5b3e c952 66be
000000b0: 0c75 0c3e 4c37 59bd 25e1 233e edb7 e4be
000000c0: 1239 253d accd 993b cef1 c3be 2f0d c13c
000000d0: 308e c7bd ff93 4fbe 5544 06bd 91ad 63be
000000e0: ba2f b43e 3d18 83be 612f 3cbd 6dfa b7be
000000f0: efd7 ccbe 32a8 b0be 1097 0dbe afdc 923e
00000100: 9c78 77be 6ff0 08be 63d3 5ebd 2733 debd
00000110: 3502 86be a84c 86be a085 f6bd 022f a3be
00000120: 2481 4c3e 85ba a2bd 8f4e 6fbe 346c 8a3e
00000130: d416 d8be 3363 12bd dfdd a7be d794 92bd
00000140: 2e47 64be 51e2 b5bc bccd 01bd eab1 20be
00000150: 0c81 053e 294f e03d f27d 39bd c68c 0a3d
00000160: 3c21 8bbe 8e5a b0be f0d6 a83e 1177 95bd
00000170: 0ace 423e 2f16 053e 7a0c b3bc 10bf a03d
00000180: 1252 afbe d4cd 1fbe 3166 72bd ec53 1cbe
0.42837533 0.06921114 -0.1844322 0.44094843 0.09089622 -0.010863226 0.25841993 0.3390885
-0.028870106 -0.039619092 0.20520721 0.35338712 0.053483665 -0.12240298 -0.077114545 0.3747323
0.111225694 0.070449464 0.082133576 0.038210593 0.35138163 0.41123703 0.19360495 -0.33827844
-0.08835117 -0.21417342 -0.19808719 -0.24713382 -0.049806967 0.05022913 -0.41587222 -0.1480123
0.18543813 0.15809625 -0.24218242 -0.33430275 -0.24064587 -0.069903366 -0.26561502 -0.1650783
0.10447081 -0.10116693 0.21464172 -0.22492518 0.13716525 -0.05303125 0.16003855 -0.44671574
0.04033763 0.0046937075 -0.3827042 0.023565857 -0.09743917 -0.202713 -0.03278001 -0.22234179
0.35192662 -0.2560443 -0.04594362 -0.35933247 -0.40008494 -0.34503323 -0.13827157 0.28683993
-0.24167103 -0.13372968 -0.054400813 -0.108496 -0.2617356 -0.2623036 -0.12037206 -0.31871802
0.19971138 -0.07945732 -0.23369811 0.27035677 -0.42204916 -0.035739135 -0.32786462 -0.07157295
-0.22292778 -0.022202643 -0.031690344 -0.15692869 0.13037509 0.109525986 -0.045286126 0.03382566
-0.27173793 -0.34444088 0.32976484 -0.07298101 0.1902391 0.12996744 -0.021856535 0.07848942
-0.34242302 -0.15605861 -0.05917949 -0.15266389

linL3.bias f4 [5]
00000000: 5619 78bb 7581 92bd 3073 16be bf6f 8a3d
00000010: 886c 6bbe
-0.0037856898 -0.07153598 -0.14692378 0.06759595 -0.2299062
