ChatBot/chat_bot/data - Copy (2).pth (torch, 13994 bytes, 6 tensors)

linL1.weight f4 [35, 35]
-24.382183 14.722068 -25.10544 25.04179 -24.295855 -25.465963 -25.766047 -24.856586
-24.239979 25.032104 -25.221928 -0.053945847 -25.06128 25.06044 -25.0587 25.247124
25.023386 25.240225 -24.30634 -24.74403 25.313599 -25.812105 -25.185736 -25.432495
-24.851753 -25.075897 25.782434 -24.909708 25.039358 23.20389 21.826263 -25.802824
-25.815739 -24.487112 -25.158226 -26.156141 19.929077 24.807121 -0.15530165 -25.210299
-25.283997 0.14007902 -25.11899 -3.271944 -25.102385 -25.023617 -0.08712334 -24.933392
-25.055387 -25.029617 -25.17826 -25.197079 -25.244398 -25.114704 -26.226217 -0.11872259
20.132912 -25.117447 24.202261 -24.85874 -25.341768 1.8724384 -25.23066 0.007788554
-26.111275 0.7757897 -0.15024042 -0.07415838 -25.086672 -0.03126666 -26.604145 -26.072104
27.415508 -24.965546 -24.428097 -25.64492 -25.138933 -5.196167 -26.642437 -25.103094
-25.161951 25.123669 27.50933 -24.9652 -25.0213 25.09117 24.970009 -25.096664
-5.0754733 15.538925 -25.06369 10.280087 -24.941393 11.865589 -26.621075 27.484722
-25.437033 27.261982 -24.899323 2.573155 15.328043 -25.2902 -25.137848 -24.589972
0.014521092 -15.608619 -7.249906 -15.135957 -25.14765 -25.190216 -1.2605875 -0.010696858
-24.222027 10.798305 -24.950865 -24.884089 25.119093 -15.236551 -25.041367 -25.01917
-25.12605 -25.217974 -25.16694 -10.841396 -18.491098 -24.998907 -26.653172 -25.194439
24.085388 -10.36256 -14.667078 9.267404 -15.197427 -24.91566 -17.051212 -16.458668
-24.954683 -24.988615 -25.116371 -24.949528 4.4013195 -15.500739 -4.592229 -24.95903
-25.15416 -27.845821 0.012487888 4.6273093 12.023428 -25.00036 -25.236517 25.390947
6.8603506 -25.203594 -25.085829 -25.076458 -25.098787 -25.079226 -13.960007 -0.03182529
-25.091532 28.32301 -24.986916 26.652735 -3.0501254 6.172195 -28.083515 6.5486183
-24.858303 2.5041668 -9.735627 -0.1179115 -25.209114 -25.082857 0.077709764 -25.037498
-24.982983 -0.16123903 -25.065842 -24.904737 -17.626621 -24.845106 -0.07786438 -17.75859
25.099684 -24.994942 -24.961323 0.09307638 25.264357 -24.943861 -0.15579632 25.259413
0.72984767 -25.17383 0.008170381 -24.971956 -25.04875 -25.052834 0.1350626 -0.12723157
-25.079563 -0.08782531 -24.953596 -24.964615 -0.12941986 -0.12825027 -25.149643 -25.08307
-24.979198 -0.14718582 -25.371382 -25.163013 27.214838 -24.939417 -24.919825 -4.3197966
-0.13328905 -5.3227215 -26.900211 -0.31412435 -0.13311386 25.43006 27.40911 -0.31724152
0.011887357 -25.018066 25.15568 -25.021212 -0.38587213 16.527798 -25.05546 -15.138892
-24.966326 25.197886 -25.202168 27.744598 -24.39271 27.503742 -25.102785 8.418207
15.284776 -25.035864 -25.025274 -24.902435 -25.235525 -23.343021 -21.036745 -25.168358
-25.097313 -23.38742 -25.057178 25.652695 -22.934029 -23.882986 -25.109108 24.188374
00000000: b60e c3c1 978d 6b41 f1d7 c8c1 9655 c841
00000010: e95d c2c1 4bba cbc1 dd20 cec1 4ada c6c1
00000020: 7aeb c1c1 c041 c841 82c6 c9c1 52f6 5cbd
00000030: 807d c8c1 c87b c841 3878 c8c1 1cfa c941
00000040: e52f c841 fbeb c941 6273 c2c1 c6f3 c5c1
00000050: 4082 ca41 317f cec1 637c c9c1 c075 cbc1
00000060: 64d0 c6c1 709b c8c1 6d42 ce41 1547 c7c1
00000070: 9b50 c841 91a1 b941 309c ae41 2f6c cec1
00000080: a286 cec1 9be5 c3c1 0c44 c9c1 c73f d1c1
00000090: c06e 9f41 fc74 c641 6507 1fbe b1ae c9c1
000000a0: a045 cac1 e070 0f3e b1f3 c8c1 8867 51c0
000000b0: afd1 c8c1 5e30 c8c1 b96d b2bd 9677 c7c1
000000c0: 6f71 c8c1 a83c c8c1 146d c9c1 9e93 c9c1
000000d0: 87f4 c9c1 eaea c8c1 4bcf d1c1 d424 f3bd
000000e0: 3410 a141 88f0 c8c1 3b9e c141 b3de c6c1
000000f0: f1bb cac1 10ac ef3f 64d8 c9c1 2037 ff3b
00000100: e4e3 d0c1 279a 463f a0d8 19be 59e0 97bd
00000110: 81b1 c8c1 7811 00bd 4ad5 d4c1 ab93 d0c1
00000120: f652 db41 70b9 c7c1 be6c c3c1 cc28 cdc1
00000130: 891c c9c1 0047 a6c0 b623 d5c1 23d3 c8c1
00000140: ad4b c9c1 46fd c841 1c13 dc41 bbb8 c7c1
00000150: 9f2b c8c1 b7ba c841 94c2 c741 f8c5 c8c1
00000160: 476a a2c0 709f 7841 7082 c8c1 3d7b 2441
00000170: f987 c7c1 74d9 3d41 f6f7 d4c1 b6e0 db41
00000180: 0b7f cbc1 8a18 da41 d031 c7c1 92ae 2440
00000190: aa3f 7541 5452 cac1 501a c9c1 43b8 c4c1
000001a0: e0e9 6d3c e7bc 79c1 3bff e7c0 e12c 72c1
000001b0: 632e c9c1 9085 c9c1 ee5a a1bf e041 2fbc
000001c0: b6c6 c1c1 dbc5 2c41 5f9b c7c1 9d12 c7c1
000001d0: e7f3 c841 eac8 73c1 b854 c8c1 4327 c8c1
000001e0: 2702 c9c1 69be c9c1 e555 c9c1 5c76 2dc1
000001f0: c5ed 93c1 c3fd c7c1 b239 d5c1 368e c9c1
00000200: e0ae c041 0ccd 25c1 5aac 6ac1 4947 1441
00000210: a928 73c1 4653 c7c1 e268 88c1 5aab 83c1
00000220: 31a3 c7c1 afe8 c7c1 54ee c8c1 a298 c7c1
00000230: 9cd7 8c40 0703 78c1 8af3 92c0 18ac c7c1
00000240: b83b c9c1 3ec4 dec1 009a 4c3c eb12 9440
00000250: f65f 4041 bd00 c8c1 63e4 c9c1 a920 cb41
00000260: fe87 db40 f6a0 c9c1 c7af c8c1 969c c8c1
00000270: 51ca c8c1 41a2 c8c1 305c 5fc1 3c5b 02bd
00000280: 75bb c8c1 8695 e241 34e5 c7c1 cd38 d541
00000290: 4135 43c0 9f82 c540 0aab e0c1 488e d140
000002a0: cedd c6c1 4544 2040 21c5 1bc1 967b f1bd
000002b0: 44ac c9c1 b1a9 c8c1 4c26 9f3d cc4c c8c1
000002c0: 26dd c7c1 d81b 25be d886 c8c1 e73c c7c1
000002d0: 5203 8dc1 c7c2 c6c1 5c77 9fbd 9811 8ec1
000002e0: 27cc c841 a4f5 c7c1 cab0 c7c1 d49e be3d
000002f0: 671d ca41 078d c7c1 1289 1fbe 4713 ca41
00000300: 4cd7 3a3f 0164 c9c1 10dd 053c 91c6 c7c1
00000310: d763 c8c1 346c c8c1 da4d 0a3e fe48 02be
00000320: f2a2 c8c1 c2dd b3bd f7a0 c7c1 88b7 c7c1
00000330: a486 04be 0a54 03be 7832 c9c1 21aa c8c1
00000340: 66d5 c7c1 e1b7 16be 97f8 cac1 da4d c9c1
00000350: fdb7 d941 ed83 c7c1 cd5b c7c1 c63b 8ac0
00000360: ed7c 08be bc53 aac0 a233 d7c1 e8d4 a0be
00000370: 004f 08be c370 cb41 db45 db41 7b6d a2be
00000380: 30c3 423c 0025 c8c1 d53e c941 712b c8c1
00000390: 0891 c5be ee38 8441 9571 c8c1 e738 72c1
000003a0: 09bb c7c1 4595 c941 0a9e c9c1 f0f4 dd41
000003b0: 4524 c3c1 aa07 dc41 81d2 c8c1 fab0 0641
000003c0: 718e 7441 7349 c8c1 c333 c8c1 3038 c7c1
000003d0: 5be2 c9c1 82be bac1 414b a8c1 cc58 c9c1
000003e0: 4cc7 c8c1 7019 bbc1 1a75 c8c1 b838 cd41
000003f0: e478 b7c1 5b10 bfc1 74df c8c1 ca81 c141

linL1.bias f4 [35]
-24.193214 5.617368 15.627185 -8.290833 -7.242912 24.560278 2.8727639 -24.423403
2.4625685 -24.964865 -0.16195592 2.0950933 18.420877 16.992445 -24.354174 14.72581
9.456803 8.983792 6.541054 -23.45377 -25.953209 -24.427845 15.845927 -24.031006
0.70756805 -24.68449 -21.797989 24.92837 15.903054 17.36183 26.463627 -24.592985
-6.196551 5.87384 -12.429517
00000000: b48b c1c1 7bc1 b340 f308 7a41 41a7 04c1
00000010: efc5 e7c0 737b c441 5ddb 3740 2163 c3c1
00000020: b99a 1d40 0bb8 c7c1 c6d7 25be 0216 0640
00000030: f55d 9341 87f0 8741 59d5 c2c1 eb9c 6b41
00000040: 114f 1741 9dbd 0f41 5050 d140 52a1 bbc1
00000050: 2ca0 cfc1 3a6c c3c1 eb88 7d41 803f c0c1
00000060: 2e23 353f d679 c5c1 4862 aec1 4d6d c741
00000070: e972 7e41 07e5 8a41 82b5 d341 6fbe c4c1
00000080: 254a c6c0 7ff6 bb40 4ddf 46c1

linL2.weight f4 [35, 35]
-23.803886 -25.060318 -24.59624 -24.80071 -24.991314 24.565958 25.304928 -25.269674
-24.16577 -25.060781 0.14013743 -24.929968 -24.353886 -24.620798 -25.013773 -25.164515
24.572699 -24.219759 -25.39558 -23.963612 -25.39997 -24.913813 -25.19852 -24.098064
-25.42899 -25.364214 -24.721516 25.075493 -25.29556 24.527187 -25.042227 -25.0098
-25.353796 -24.53669 -24.124212 -17.849518 10.354953 26.585222 -21.400934 -2.891557
-25.11197 26.512278 23.967714 -25.734118 25.263296 0.021316975 -6.171694 -20.999462
26.642094 -20.138708 26.26939 -4.494775 -25.1308 24.656904 22.601368 24.068008
25.392843 26.598808 23.81856 -21.554192 24.436033 -0.71952355 -24.937243 -18.858738
25.633049 -25.706924 24.05888 -25.293116 -4.2326694 -21.897228 -25.08903 2.5335789
-11.187931 -25.321514 26.012774 -24.910442 7.5001063 25.246439 14.551255 25.125933
0.12755418 -8.228179 -4.2043457 0.7071449 22.620861 13.74139 -25.490349 -25.975426
22.073362 -24.613127 -24.107433 25.291021 23.772001 -25.293087 -4.7879076 23.96434
-24.52844 -25.081049 6.8218446 -26.60951 -25.072828 25.253525 -24.333689 -24.741909
18.068808 25.10999 -0.36856592 25.155666 14.038747 -19.151468 -24.156298 -14.401589
-24.606525 24.540834 -23.174704 -0.1668514 -27.827188 18.504639 25.145744 25.057198
-25.255909 -14.29582 17.128435 -25.509861 24.368904 -25.299255 -23.870604 -25.076445
25.178118 6.8734727 23.959785 24.480541 25.190193 -0.5967839 26.402527 -20.507046
-23.9672 -24.605165 23.221107 -4.452209 -24.526821 -24.673038 -25.374979 -3.7052789
-26.376005 -24.863993 -25.049036 -24.74624 -19.413172 -24.593302 0.036993876 27.052698
-20.156479 -24.256641 -24.26195 -24.686161 -25.36928 -1.1683528 -24.420576 25.110943
-24.388102 -24.764551 -25.418247 -16.422249 -25.209099 24.927137 -24.62502 -25.090202
-22.986517 -25.02845 -17.468405 -24.878666 -25.351934 -25.296173 -25.746788 -25.206562
0.5192881 -24.903114 -22.121552 17.725315 -24.857325 -7.621326 25.674786 -18.469917
23.519457 0.037509292 23.735502 -7.506242 -24.450335 21.5343 26.354147 -24.713396
-5.1019845 7.555949 -25.163996 7.54459 -18.087667 25.982094 -25.277275 -3.2641807
-22.646797 -25.960659 -25.023706 18.290703 -26.761604 7.4016743 24.952375 -21.568432
-26.622026 16.017464 -24.21365 -25.529894 -24.87281 -25.643946 -25.660877 25.246044
-25.316282 -24.68442 26.55724 -25.061771 -0.04386933 25.286116 -25.092213 -25.679485
-25.365398 -25.558136 24.832977 -24.320517 -7.298389 -23.979677 -6.8250494 -24.40125
-25.460304 -25.469946 -21.45039 -23.795368 25.484108 25.352488 -25.059351 26.214493
26.77702 -25.49192 26.447872 26.534904 -23.632174 -25.214825 26.150314 -11.467613
-24.319437 27.522682 -24.73469 14.614585 24.1956 21.147305 24.718412 0.0059670955
00000000: 5c6e bec1 887b c8c1 19c5 c4c1 db67 c6c1
00000010: 36ee c7c1 1587 c441 7e70 ca41 4b28 cac1
00000020: 7f53 c1c1 7b7c c8c1 3080 0f3e 9370 c7c1
00000030: c2d4 c2c1 65f7 c4c1 351c c8c1 ed50 c9c1
00000040: e394 c441 11c2 c1c1 262a cbc1 7ab5 bfc1
00000050: 2333 cbc1 7d4f c7c1 9296 c9c1 d6c8 c0c1
00000060: 926e cbc1 e9e9 cac1 aac5 c5c1 9c9a c841
00000070: 4f5d cac1 ae37 c441 7b56 c8c1 1214 c8c1
00000080: 93d4 cac1 244b c4c1 63fe c0c1 d0cb 8ec1
00000090: e3ad 2541 89ae d441 1d35 abc1 450f 39c0
000000a0: 51e5 c8c1 2519 d441 e1bd bf41 79df cdc1
000000b0: 3b1b ca41 f0a0 ae3c 847e c5c0 e6fe a7c1
000000c0: 0223 d541 131c a1c1 b627 d241 32d5 8fc0
000000d0: e10b c9c1 5741 c541 9acf b441 488b c041
000000e0: 8b24 cb41 5cca d441 698c be41 fc6e acc1
000000f0: ff7c c341 b232 38bf 797f c7c1 b2de 96c1
00000100: 7c10 cd41 c8a7 cdc1 9678 c041 4d58 cac1
00000110: 0772 87c0 862d afc1 55b6 c8c1 2826 2240
00000120: c401 33c1 7692 cac1 291a d041 9648 c7c1
00000130: df00 f040 b5f8 c941 f1d1 6841 e901 c941
00000140: 909d 023e 9fa6 03c1 008a 86c0 7307 353f
00000150: 86f7 b441 bcdc 5b41 3cec cbc1 accd cfc1
00000160: 3f96 b041 afe7 c4c1 06dc c0c1 0354 ca41
00000170: 0f2d be41 3e58 cac1 8a36 99c0 f8b6 bf41
00000180: 3f3a c4c1 fda5 c8c1 8d4c da40 47e0 d4c1
00000190: 2795 c8c1 3807 ca41 65ab c2c1 6eef c5c1
000001a0: eb8c 9041 42e1 c841 acb4 bcbe ce3e c941
000001b0: b59e 6041 3536 99c1 1940 c1c1 e96c 66c1
000001c0: 2ada c4c1 a153 c441 cb65 b9c1 18db 2abe
000001d0: 159e dec1 8009 9441 7c2a c941 2475 c841
000001e0: 1a0c cac1 aebb 64c1 0907 8941 3214 ccc1
000001f0: 84f3 c241 e064 cac1 fff6 bec1 8f9c c8c1
00000200: c96c c941 7df3 db40 a4ad bf41 26d8 c341
00000210: 8485 c941 d4c6 18bf 6038 d341 6e0e a4c1
00000220: d3bc bfc1 61d7 c4c1 d4c4 b941 7f78 8ec0
00000230: ee36 c4c1 6262 c5c1 f5ff cac1 4a23 6dc0
00000240: 0f02 d3c1 75e9 c6c1 6d64 c8c1 4df8 c5c1
00000250: 2d4e 9bc1 15bf c4c1 e486 173d ed6b d841
00000260: 7840 a1c1 9a0d c2c1 7918 c2c1 427d c5c1
00000270: 49f4 cac1 968c 95bf 575d c3c1 36e3 c841
00000280: d51a c3c1 cd1d c6c1 9258 cbc1 c460 83c1
00000290: 3cac c9c1 c76a c741 0a00 c5c1 bcb8 c8c1
000002a0: 63e4 b7c1 443a c8c1 4bbf 8bc1 8207 c7c1
000002b0: c3d0 cac1 905e cac1 6cf9 cdc1 0aa7 c9c1
000002c0: 11f0 043f 9439 c7c1 f0f8 b0c1 72cd 8d41
000002d0: cddb c6c1 e7e1 f3c0 f665 cd41 64c2 93c1
000002e0: d927 bc41 58a3 193d 4fe2 bd41 2233 f0c0
000002f0: 499a c3c1 3f46 ac41 4bd5 d241 09b5 c5c1
00000300: 7543 a3c0 56ca f140 dd4f c9c1 486d f140
00000310: 8bb3 90c1 54db cf41 dc37 cac1 56e8 50c0
00000320: a42c b5c1 6eaf cfc1 8d30 c8c1 5c53 9241
00000330: c417 d6c1 84da ec40 779e c741 268c acc1
00000340: e9f9 d4c1 c423 8041 8eb5 c1c1 393d ccc1
00000350: 84fb c6c1 cd26 cdc1 7a49 cdc1 e6f7 c941
00000360: bf87 cac1 b179 c5c1 3a75 d441 827e c8c1
00000370: 54b0 33bd f749 ca41 dabc c8c1 966f cdc1
00000380: 56ec cac1 1077 ccc1 f0a9 c641 6b90 c2c1
00000390: 678c e9c0 61d6 bfc1 ce66 dac0 c335 c3c1
000003a0: b4ae cbc1 73c2 cbc1 669a abc1 ea5c bec1
000003b0: 74df cb41 e5d1 ca41 8d79 c8c1 48b7 d141
000003c0: 5637 d641 74ef cbc1 3e95 d341 7c47 d441
000003d0: b10e bdc1 f6b7 c9c1 d833 d141 587b 37c1
000003e0: 358e c2c1 742e dc41 a5e0 c5c1 57d5 6941
000003f0: 9790 c141 ae2d a941 4fbf c541 a087 c33b

linL2.bias f4 [35]
-25.051846 -0.33839905 11.165756 17.463196 -15.222595 9.8730955 25.17965 21.296278
-9.863557 -24.632751 13.482626 -15.115 -8.408147 13.344406 -24.99488 -2.8275127
11.087057 -24.907095 -21.265326 -22.096191 -24.557585 -24.811808 25.271702 2.7087336
-25.742147 -20.186186 -25.07358 8.23123 -19.424622 -25.182709 24.738949 -25.156282
-2.6661518 -25.143028 25.572924
00000000: 2e6a c8c1 a442 adbe f0a6 3241 a0b4 8b41
00000010: c08f 73c1 33f8 1d41 ec6f c941 c75e aa41
00000020: 21d1 1dc1 e00f c5c1 d6b8 5741 0ad7 71c1
00000030: c587 06c1 b082 5541 84f5 c7c1 f8f5 34c0
00000040: 9664 3141 bb41 c7c1 631f aac1 00c5 b0c1
00000050: ef75 c4c1 957e c6c1 722c ca41 e45b 2d40
00000060: ebef cdc1 4f7d a1c1 b196 c8c1 1eb3 0341
00000070: a065 9bc1 3076 c9c1 5ee9 c541 1140 c9c1
00000080: 3ba2 2ac0 ec24 c9c1 5995 cc41

linL3.weight f4 [6, 35]
-24.58912 -25.239649 -25.26019 24.443888 -25.30628 -25.681175 25.316864 -25.173565
25.051376 -25.61734 24.87605 -25.175045 -24.345581 25.210203 -22.325928 -25.494959
-25.269945 -23.047844 -25.415049 24.860817 -23.436327 -23.37431 25.240276 -25.436068
-25.394184 -25.395903 -25.112432 -25.643442 -25.325584 -25.046478 -24.05085 -0.07176854
25.181265 -25.024143 24.531435 -24.583046 -26.583288 -25.49703 -26.578327 1.4361663
14.387253 -25.225847 -24.95975 -7.0640326 -25.146189 27.073303 2.5837662 24.688232
-25.90713 -15.7069845 2.6405144 -1.3710057 -24.862556 1.49478 -25.079811 -25.158306
-25.110924 -25.299917 0.0020454843 -0.8597902 0.5827472 -24.880836 11.046554 -24.840631
24.742472 -23.214508 -21.738668 -6.8933935 24.89008 -25.468176 24.691149 -21.51132
16.688723 -17.569271 24.951027 21.672983 4.5012197 26.545317 -24.044765 23.976255
-23.88087 -13.0076685 -25.13912 23.921831 -7.330365 -21.459644 13.396062 14.769859
-25.508543 -2.483942 24.410767 24.404835 6.2520633 24.690228 -18.743814 -25.129602
-24.997465 8.864199 -21.007835 23.39592 -25.689915 24.628094 15.392935 -25.019585
-23.30058 -22.164024 24.611397 10.351322 20.508842 10.878746 -2.3096888 -25.418638
-23.716045 -22.900003 24.95559 -5.000008 11.114923 23.816004 23.25464 -14.164719
24.93194 18.42595 24.143005 -23.44028 -25.118944 -24.139063 -24.173998 -25.52397
22.888044 -22.134436 7.248051 -25.045446 -1.2089922 24.306078 -22.820877 20.541643
-24.341412 -26.844645 -25.086063 25.330904 24.773811 26.45368 -26.795929 24.366592
-26.318954 -15.85618 -25.205093 -26.280039 27.205288 -24.827332 -26.183855 -26.931917
-23.33068 26.327192 23.125063 -25.33238 -26.39158 -13.129482 11.072893 -14.154378
-25.391964 25.20323 -25.142687 6.744939 8.947703 -19.272537 24.874445 -24.18496
-25.448954 25.297186 13.761578 -0.4575624 25.197432 -24.829964 -25.36944 -25.392004
-25.294271 -25.436571 -25.513319 -24.665903 -6.28265 26.669172 25.440144 -25.160257
-24.310673 -25.224318 -25.142864 25.792484 -25.375937 -0.8266361 -25.303844 -25.518162
-25.23125 -25.131449 -3.044184 -24.819487 -25.12286 26.751892 -25.485218 -25.20658
-25.260994 -25.11869 26.63502 -25.45201 -25.238966 -25.367537 -13.6296015 -25.14032
-24.946634 26.185093
00000000: 85b6 c4c1 cdea c9c1 de14 cac1 158d c341
00000010: 4373 cac1 0c73 cdc1 f088 ca41 7663 c9c1
00000020: 3869 c841 50f0 ccc1 2702 c741 7e66 c9c1
00000030: c0c3 c2c1 7fae c941 809b b2c1 adf5 cbc1
00000040: d928 cac1 fc61 b8c1 0552 cbc1 f4e2 c641
00000050: 997d bbc1 96fe bac1 16ec c941 117d cbc1
00000060: 4a27 cbc1 cf2a cbc1 43e6 c8c1 c525 cdc1
00000070: cc9a cac1 305f c8c1 2468 c0c1 62fb 92bd
00000080: 3b73 c941 7231 c8c1 6140 c441 14aa c4c1
00000090: 93aa d4c1 ebf9 cbc1 6aa0 d4c1 4cd4 b73f
000000a0: 3032 6641 89ce c9c1 91ad c7c1 8e0c e2c0
000000b0: 652b c9c1 2096 d841 6d5c 2540 8081 c541
000000c0: cd41 cfc1 cf4f 7bc1 30fe 2840 1d7d afbf
000000d0: 84e6 c6c1 f354 bf3f 74a3 c8c1 3644 c9c1
000000e0: 2ce3 c8c1 3b66 cac1 880d 063b 361b 5cbf
000000f0: ec2e 153f f40b c7c1 afbe 3041 9db9 c6c1
00000100: 95f0 c541 50b7 b9c1 cbe8 adc1 ae96 dcc0
00000110: e21e c741 d3be cbc1 7987 c541 2f17 acc1
00000120: 8182 8541 de8d 8cc1 b49b c741 4562 ad41
00000130: fe09 9040 cf5c d441 ae5b c0c1 5fcf bf41
00000140: 060c bfc1 691f 50c1 eb1c c9c1 e95f bf41
00000150: 5a92 eac0 5aad abc1 4556 5641 5851 6c41
00000160: 7f11 ccc1 e8f8 1ec0 4049 c341 1a3d c341
00000170: e710 c840 9685 c541 55f3 95c1 6d09 c9c1
00000180: cffa c7c1 c2d3 0d41 0c10 a8c1 d82a bb41
00000190: f284 cdc1 5606 c541 7649 7641 1c28 c8c1
000001a0: 9667 bac1 ec4f b1c1 24e4 c441 049f 2541
000001b0: 1c12 a441 580f 2e41 f1d1 13c0 5f59 cbc1
000001c0: 76ba bdc1 3533 b7c1 0ca5 c741 1100 a0c0
000001d0: b9d6 3141 2d87 be41 8109 ba41 b0a2 62c1
000001e0: 9d74 c741 5868 9341 e024 c141 b285 bbc1
000001f0: 99f3 c8c1 cd1c c1c1 5964 c1c1 1731 ccc1
00000200: b71a b741 5313 b1c1 09f0 e740 135d c8c1
00000210: 42c0 9abf d972 c241 2891 b6c1 4955 a441
00000220: 36bb c2c1 d5c1 d6c1 42b0 c8c1 b1a5 ca41
00000230: c430 c641 23a1 d341 105e d6c1 c8ee c241
00000240: 388d d2c1 eab2 7dc1 08a4 c9c1 853d d2c1
00000250: 6ea4 d941 609e c6c1 8978 d1c1 9174 d7c1
00000260: 3ca5 bac1 179e d241 2100 b941 b7a8 cac1
00000270: f521 d3c1 5c12 52c1 922a 3141 5578 62c1
00000280: be22 cbc1 37a0 c941 3924 c9c1 8ad6 d740
00000290: cb29 0f41 282e 9ac1 ddfe c641 cc7a c1c1
000002a0: 7597 cbc1 a360 ca41 6c2f 5c41 9e45 eabe
000002b0: 5794 c941 c4a3 c6c1 9df4 cac1 d322 cbc1
000002c0: ab5a cac1 197e cbc1 471b ccc1 c553 c5c1
000002d0: 780b c9c0 775a d541 6a85 cb41 3548 c9c1
000002e0: 427c c2c1 67cb c9c1 9624 c9c1 0257 ce41
000002f0: eb01 cbc1 6c9e 53bf 466e cac1 3225 ccc1
00000300: 9ad9 c9c1 350d c9c1 e9d3 42c0 4f8e c6c1
00000310: 9efb c8c1 e003 d641 bae1 cbc1 13a7 c9c1
00000320: 8416 cac1 14f3 c8c1 8514 d541 b79d cbc1
00000330: 67e9 c9c1 b7f0 cac1 d912 5ac1 601f c9c1
00000340: b592 c7c1 127b d141

linL3.bias f4 [6]
25.083937 -25.203331 -23.462448 -24.921373 24.72241 -25.28906
00000000: e7ab c841 6ca0 c9c1 18b3 bbc1 f95e c7c1
00000010: 7fc7 c541 ff4f cac1
