ChatBot/chat_bot/data.pth (torch, 2616 bytes, 3 tensors)

linL1.weight f4 [8, 11]
0	0x3e4ab9ba	0.19797412
1	0xbe55be7c	-0.20873445
2	0x3e558628	0.20851958
3	0xbe521295	-0.20514901
4	0x3e73d108	0.23810208
5	0xbd621554	-0.05519612
6	0x3dfc44b8	0.123177946
7	0x3e2fe88c	0.17178553
8	0x3e54465c	0.20729965
9	0xbd874316	-0.066045925
10	0x3bca6f40	0.006177813
11	0x3dd768c4	0.10518029
12	0xbe7dae4b	-0.24773519
13	0xbe336029	-0.17517151
14	0xbe05bc35	-0.13060077
15	0x3e6119dc	0.21982521
16	0xbe89a9c4	-0.26887333
17	0x3e6ece18	0.23320806
18	0xbe75938e	-0.23982069
19	0x3d2ab408	0.041675597
20	0xbdd5ec60	-0.104454756
21	0xbe2bff11	-0.16796519
22	0xbe90d76d	-0.28289357
23	0x3e2311c0	0.1592474
24	0x3c7f30e0	0.015575618
25	0x3e71f3e8	0.23628199
26	0x3e6df8a8	0.23239386
27	0x3e1369ec	0.14395875
28	0x3d389c18	0.045070738
29	0x3e849670	0.25896025
30	0xbe83e458	-0.2576015
31	0x3dc45688	0.09586817
32	0xbdbea678	-0.09309095
33	0xbc7b0d40	-0.015322983
34	0xbdb13a82	-0.086537376
35	0x3e73b278	0.23798549
36	0xbe4a5112	-0.19757488
37	0x3d6dced8	0.05805859
38	0x3c8b8700	0.017032146
39	0xbe8f041d	-0.27932826
40	0xbe33617a	-0.17517653
41	0xba163000	-0.00057291985
42	0xbce91300	-0.028451443
43	0x3e1ab638	0.15108573
44	0xbcd81d40	-0.026381135
45	0x3e6ea94c	0.23306769
46	0xbe0129ff	-0.12613676
47	0x3e88bc96	0.2670638
48	0x3e1be460	0.15223837
49	0x3e4ac23c	0.19800657
50	0xbe56e4fd	-0.2098579
51	0x3e6a1430	0.22859263
52	0xbd6dc7c0	-0.058051825
53	0xbe88f892	-0.26752144
54	0xbe4794da	-0.19490376
55	0xbe88d818	-0.26727366
56	0xbe0bdcef	-0.13658498
57	0xbdaf6f96	-0.08566205
58	0x3e0b54f4	0.13606626
59	0x3e358664	0.17727047
60	0x3e5a1608	0.21297467
61	0x3e969330	0.2940917
62	0x3e3f62d4	0.18690044
63	0xbe2f3cfd	-0.17113109
64	0x3da8a978	0.082354486
65	0x3e1e7ef0	0.1547811
66	0x3e91c7c2	0.28472716
67	0xbdc0d14a	-0.09414919
68	0xbe0905cd	-0.13381119
69	0xbe3a3f7a	-0.18188277
70	0xbe973824	-0.2953502
71	0x3e35fd86	0.17772493
72	0x3e85d24e	0.26137012
73	0xbe993a94	-0.29927504
74	0xbe69386e	-0.22775432
75	0xbe8678ed	-0.26264134
76	0x3e0556e2	0.13021424
77	0x3e8d45c6	0.27592295
78	0xbd6c1a8c	-0.057642505
79	0x3e786ae0	0.2425952
80	0xbe0ef1c3	-0.13959412
81	0xbe8e7dab	-0.27830252
82	0xba492600	-0.0007673204
83	0xbe33f9c0	-0.17575741
84	0xbc8709d0	-0.016484171
85	0xbe7f3558	-0.24922693
86	0x3dd3e69c	0.103467196
87	0xbdd8021a	-0.10547276

linL1.bias f4 [8]
0	0x3df7ec44	0.12105611
1	0xbdbd2966	-0.09236412
2	0xbe8fd49d	-0.280919
3	0x3cb76420	0.02238661
4	0xbcb57a50	-0.02215305
5	0xbd6a7fec	-0.057250902
6	0xbdf483a4	-0.11939171
7	0xbd933252	-0.07187332

linL2.weight f4 [1, 8]
0	0xbdcfc350	-0.10144675
1	0x3e811a71	0.25215486
2	0xbeaeec89	-0.34164837
3	0x3e27f3f2	0.16401652
4	0xbe9200e7	-0.28516313
5	0xbe8f4b60	-0.27987194
6	0xbe0d453b	-0.1379594
7	0x3ea75659	0.32683066
